CEConv/outputs/test_results/flowers102-resnet18_3-true-jitter_0_0-split_1_0-seed_0-hsv_space-no_norm-2024-05-09_16:51:41_kernelhueshift_nonorm.npz (npz, 1090 bytes, 2 tensors)

hue f8 [37]
0	0xbfe0000000000000	-0.5
1	0xbfde38e38e38e38e	-0.4722222222222222
2	0xbfdc71c71c71c71c	-0.4444444444444444
3	0xbfdaaaaaaaaaaaab	-0.4166666666666667
4	0xbfd8e38e38e38e39	-0.3888888888888889
5	0xbfd71c71c71c71c7	-0.3611111111111111
6	0xbfd5555555555556	-0.33333333333333337
7	0xbfd38e38e38e38e4	-0.3055555555555556
8	0xbfd1c71c71c71c72	-0.2777777777777778
9	0xbfd0000000000000	-0.25
10	0xbfcc71c71c71c71c	-0.2222222222222222
11	0xbfc8e38e38e38e3a	-0.19444444444444448
12	0xbfc5555555555556	-0.16666666666666669
13	0xbfc1c71c71c71c72	-0.1388888888888889
14	0xbfbc71c71c71c720	-0.11111111111111116
15	0xbfb5555555555558	-0.08333333333333337
16	0xbfac71c71c71c720	-0.05555555555555558
17	0xbf9c71c71c71c720	-0.02777777777777779
18	0x0000000000000000	0.0
19	0x3f9c71c71c71c720	0.02777777777777779
20	0x3fac71c71c71c720	0.05555555555555558
21	0x3fb5555555555550	0.08333333333333326
22	0x3fbc71c71c71c718	0.11111111111111105
23	0x3fc1c71c71c71c70	0.13888888888888884
24	0x3fc5555555555554	0.16666666666666663
25	0x3fc8e38e38e38e38	0.19444444444444442
26	0x3fcc71c71c71c71c	0.2222222222222222
27	0x3fd0000000000000	0.25
28	0x3fd1c71c71c71c70	0.2777777777777777
29	0x3fd38e38e38e38e2	0.30555555555555547
30	0x3fd5555555555554	0.33333333333333326
31	0x3fd71c71c71c71c6	0.36111111111111105
32	0x3fd8e38e38e38e38	0.38888888888888884
33	0x3fdaaaaaaaaaaaaa	0.41666666666666663
34	0x3fdc71c71c71c71c	0.4444444444444444
35	0x3fde38e38e38e38e	0.4722222222222222
36	0x3fe0000000000000	0.5

acc f8 [37]
0	0x3f99256d80000000	0.02455683797597885
1	0x3f9b4fa4c0000000	0.02667100355029106
2	0x3f9825a2e0000000	0.023581070825457573
3	0x3f975079e0000000	0.0227679293602705
4	0x3f937bf0e0000000	0.019027484580874443
5	0x3f8ea44880000000	0.014961782842874527
6	0x3f8a4fda00000000	0.012847617268562317
7	0x3f8da47dc0000000	0.014473898336291313
8	0x3f8d4f3a20000000	0.014311269856989384
9	0x3f92518460000000	0.01788908801972866
10	0x3f952642c0000000	0.02065376564860344
11	0x3f9dcf1f80000000	0.02911042422056198
12	0x3fa4666aa0000000	0.03984387591481209
13	0x3fafe405e0000000	0.06228655204176903
14	0x3fbaefb8c0000000	0.10522036254405975
15	0x3fc77b1ba0000000	0.18344445526599884
16	0x3fd4411d20000000	0.31647422909736633
17	0x3fdf46d140000000	0.488697350025177
18	0x3fe2b41a80000000	0.5844852924346924
19	0x3fe041f240000000	0.5080500841140747
20	0x3fd7e05be0000000	0.37306877970695496
21	0x3fcc5f6c20000000	0.22166205942630768
22	0x3fc0bc8360000000	0.13075296580791473
23	0x3fb670a880000000	0.08765652775764465
24	0x3fafb96400000000	0.06196129322052002
25	0x3fa7906ca0000000	0.04602374508976936
26	0x3fa2a6c7e0000000	0.03642868623137474
27	0x3f9bcf8a20000000	0.027158888056874275
28	0x3f97d05f40000000	0.023255813866853714
29	0x3f95a62800000000	0.021141648292541504
30	0x3f945119c0000000	0.019840624183416367
31	0x3f93d13460000000	0.019352739676833153
32	0x3f9326ad40000000	0.018702227622270584
33	0x3f907c90c0000000	0.01610017940402031
34	0x3f92fc0b80000000	0.01853960007429123
35	0x3f95d0c9e0000000	0.021304277703166008
36	0x3f99256d80000000	0.02455683797597885
