CEConv/outputs/test_results/flowers102-resnet18_3-true-jitter_0_5-split_1_0-seed_0-hsv_space-no_norm-2024-05-09_17:21:08_kernelhueshift_nonorm_jitter.npz (npz, 1090 bytes, 2 tensors)

hue f8 [37]
0	0xbfe0000000000000	-0.5
1	0xbfde38e38e38e38e	-0.4722222222222222
2	0xbfdc71c71c71c71c	-0.4444444444444444
3	0xbfdaaaaaaaaaaaab	-0.4166666666666667
4	0xbfd8e38e38e38e39	-0.3888888888888889
5	0xbfd71c71c71c71c7	-0.3611111111111111
6	0xbfd5555555555556	-0.33333333333333337
7	0xbfd38e38e38e38e4	-0.3055555555555556
8	0xbfd1c71c71c71c72	-0.2777777777777778
9	0xbfd0000000000000	-0.25
10	0xbfcc71c71c71c71c	-0.2222222222222222
11	0xbfc8e38e38e38e3a	-0.19444444444444448
12	0xbfc5555555555556	-0.16666666666666669
13	0xbfc1c71c71c71c72	-0.1388888888888889
14	0xbfbc71c71c71c720	-0.11111111111111116
15	0xbfb5555555555558	-0.08333333333333337
16	0xbfac71c71c71c720	-0.05555555555555558
17	0xbf9c71c71c71c720	-0.02777777777777779
18	0x0000000000000000	0.0
19	0x3f9c71c71c71c720	0.02777777777777779
20	0x3fac71c71c71c720	0.05555555555555558
21	0x3fb5555555555550	0.08333333333333326
22	0x3fbc71c71c71c718	0.11111111111111105
23	0x3fc1c71c71c71c70	0.13888888888888884
24	0x3fc5555555555554	0.16666666666666663
25	0x3fc8e38e38e38e38	0.19444444444444442
26	0x3fcc71c71c71c71c	0.2222222222222222
27	0x3fd0000000000000	0.25
28	0x3fd1c71c71c71c70	0.2777777777777777
29	0x3fd38e38e38e38e2	0.30555555555555547
30	0x3fd5555555555554	0.33333333333333326
31	0x3fd71c71c71c71c6	0.36111111111111105
32	0x3fd8e38e38e38e38	0.38888888888888884
33	0x3fdaaaaaaaaaaaaa	0.41666666666666663
34	0x3fdc71c71c71c71c	0.4444444444444444
35	0x3fde38e38e38e38e	0.4722222222222222
36	0x3fe0000000000000	0.5

acc f8 [37]
0	0x3fe590d720000000	0.6739307045936584
1	0x3fe57e3060000000	0.6716539263725281
2	0x3fe574dd00000000	0.6705155372619629
3	0x3fe57387e0000000	0.6703528761863708
4	0x3fe55f8c20000000	0.6679134964942932
5	0x3fe5678a60000000	0.6688892245292664
6	0x3fe550e480000000	0.6661245822906494
7	0x3fe544e700000000	0.6646609306335449
8	0x3fe51a4540000000	0.6594568490982056
9	0x3fe50a4880000000	0.6575052738189697
10	0x3fe4f7a1c0000000	0.6552284955978394
11	0x3fe4c501a0000000	0.6490486264228821
12	0x3fe4f64cc0000000	0.6550658941268921
13	0x3fe4b105c0000000	0.6466091871261597
14	0x3fe47fbac0000000	0.6405919790267944
15	0x3fe49a5fe0000000	0.6438445448875427
16	0x3fe4ad06a0000000	0.6461213231086731
17	0x3fe4bfad60000000	0.6483981013298035
18	0x3fe4910c80000000	0.6427061557769775
19	0x3fe4f7a1c0000000	0.6552284955978394
20	0x3fe534ea40000000	0.6627093553543091
21	0x3fe55638c0000000	0.666775107383728
22	0x3fe5523980000000	0.6662871837615967
23	0x3fe560e120000000	0.6680760979652405
24	0x3fe56cdea0000000	0.669539749622345
25	0x3fe59a2a80000000	0.6750690937042236
26	0x3fe584d9a0000000	0.672467052936554
27	0x3fe57a3140000000	0.6711660623550415
28	0x3fe56b89a0000000	0.6693771481513977
29	0x3fe56e33c0000000	0.669702410697937
30	0x3fe55ce200000000	0.6675882339477539
31	0x3fe5623640000000	0.6682387590408325
32	0x3fe56e33c0000000	0.669702410697937
33	0x3fe57e3060000000	0.6716539263725281
34	0x3fe5778720000000	0.6708407998085022
35	0x3fe5862ec0000000	0.672629714012146
36	0x3fe590d720000000	0.6739307045936584
