CEConv/outputs/test_results/flowers102-resnet18_3-true-jitter_0_0-split_1_0-seed_0-hsv_space-2024-05-09_15:09:00_kernelhueshift_remainder1.npz (npz, 1090 bytes, 2 tensors)

hue f8 [37]
-0.5 -0.4722222222222222 -0.4444444444444444 -0.4166666666666667 -0.3888888888888889 -0.3611111111111111 -0.33333333333333337 -0.3055555555555556
-0.2777777777777778 -0.25 -0.2222222222222222 -0.19444444444444448 -0.16666666666666669 -0.1388888888888889 -0.11111111111111116 -0.08333333333333337
-0.05555555555555558 -0.02777777777777779 0.0 0.02777777777777779 0.05555555555555558 0.08333333333333326 0.11111111111111105 0.13888888888888884
0.16666666666666663 0.19444444444444442 0.2222222222222222 0.25 0.2777777777777777 0.30555555555555547 0.33333333333333326 0.36111111111111105
0.38888888888888884 0.41666666666666663 0.4444444444444444 0.4722222222222222 0.5
00000000: 0000 0000 0000 e0bf 8ee3 388e e338 debf
00000010: 1cc7 711c c771 dcbf abaa aaaa aaaa dabf
00000020: 398e e338 8ee3 d8bf c771 1cc7 711c d7bf
00000030: 5655 5555 5555 d5bf e438 8ee3 388e d3bf
00000040: 721c c771 1cc7 d1bf 0000 0000 0000 d0bf
00000050: 1cc7 711c c771 ccbf 3a8e e338 8ee3 c8bf
00000060: 5655 5555 5555 c5bf 721c c771 1cc7 c1bf
00000070: 20c7 711c c771 bcbf 5855 5555 5555 b5bf
00000080: 20c7 711c c771 acbf 20c7 711c c771 9cbf
00000090: 0000 0000 0000 0000 20c7 711c c771 9c3f
000000a0: 20c7 711c c771 ac3f 5055 5555 5555 b53f
000000b0: 18c7 711c c771 bc3f 701c c771 1cc7 c13f
000000c0: 5455 5555 5555 c53f 388e e338 8ee3 c83f
000000d0: 1cc7 711c c771 cc3f 0000 0000 0000 d03f
000000e0: 701c c771 1cc7 d13f e238 8ee3 388e d33f
000000f0: 5455 5555 5555 d53f c671 1cc7 711c d73f
00000100: 388e e338 8ee3 d83f aaaa aaaa aaaa da3f
00000110: 1cc7 711c c771 dc3f 8ee3 388e e338 de3f
00000120: 0000 0000 0000 e03f

acc f8 [37]
0.032688241451978683 0.033826638013124466 0.03366401046514511 0.03285086899995804 0.028459912165999413 0.025857863947749138 0.025857863947749138 0.026833631098270416
0.030574077740311623 0.03675394505262375 0.04277118295431137 0.0509025864303112 0.06407546252012253 0.1000162661075592 0.16197755932807922 0.2720767557621002
0.4051065146923065 0.525126039981842 0.6007480621337891 0.5233371257781982 0.4234834909439087 0.29809725284576416 0.19710521399974823 0.1348186731338501
0.09367376565933228 0.07090584188699722 0.05854610353708267 0.0509025864303112 0.04976418986916542 0.04699951037764549 0.04488534852862358 0.045373231172561646
0.040494389832019806 0.03756708279252052 0.032688241451978683 0.030736705288290977 0.032688241451978683
00000000: 0000 0060 83bc a03f 0000 00a0 b951 a13f
00000010: 0000 00c0 683c a13f 0000 0040 d4d1 a03f
00000020: 0000 0060 9824 9d3f 0000 00e0 7b7a 9a3f
00000030: 0000 00e0 7b7a 9a3f 0000 0080 467a 9b3f
00000040: 0000 00a0 cf4e 9f3f 0000 00c0 69d1 a23f
00000050: 0000 00c0 1ae6 a53f 0000 0060 e70f aa3f
00000060: 0000 00e0 3f67 b03f 0000 0080 aa9a b93f
00000070: 0000 0040 aebb c43f 0000 00a0 b469 d13f
00000080: 0000 00e0 43ed d93f 0000 0020 d5cd e03f
00000090: 0000 0000 5439 e33f 0000 0080 2dbf e03f
000000a0: 0000 0080 5a1a db3f 0000 0080 0614 d33f
000000b0: 0000 0060 be3a c93f 0000 0000 bd41 c13f
000000c0: 0000 0000 01fb b73f 0000 00a0 e226 b23f
000000d0: 0000 0040 c1f9 ad3f 0000 0060 e70f aa3f
000000e0: 0000 0020 b17a a93f 0000 00e0 5110 a83f
000000f0: 0000 0060 36fb a63f 0000 0000 293b a73f
00000100: 0000 0040 aebb a43f 0000 0020 fe3b a33f
00000110: 0000 0060 83bc a03f 0000 0060 7179 9f3f
00000120: 0000 0060 83bc a03f
