CEConv/outputs/test_results/flowers102-resnet18_3-true-jitter_0_5-split_1_0-seed_0-hsv_space-2024-05-09_16:20:46_kernelhueshift_norm_jitter.npz (npz, 1090 bytes, 2 tensors)

hue f8 [37]
-0.5 -0.4722222222222222 -0.4444444444444444 -0.4166666666666667 -0.3888888888888889 -0.3611111111111111 -0.33333333333333337 -0.3055555555555556
-0.2777777777777778 -0.25 -0.2222222222222222 -0.19444444444444448 -0.16666666666666669 -0.1388888888888889 -0.11111111111111116 -0.08333333333333337
-0.05555555555555558 -0.02777777777777779 0.0 0.02777777777777779 0.05555555555555558 0.08333333333333326 0.11111111111111105 0.13888888888888884
0.16666666666666663 0.19444444444444442 0.2222222222222222 0.25 0.2777777777777777 0.30555555555555547 0.33333333333333326 0.36111111111111105
0.38888888888888884 0.41666666666666663 0.4444444444444444 0.4722222222222222 0.5
00000000: 0000 0000 0000 e0bf 8ee3 388e e338 debf
00000010: 1cc7 711c c771 dcbf abaa aaaa aaaa dabf
00000020: 398e e338 8ee3 d8bf c771 1cc7 711c d7bf
00000030: 5655 5555 5555 d5bf e438 8ee3 388e d3bf
00000040: 721c c771 1cc7 d1bf 0000 0000 0000 d0bf
00000050: 1cc7 711c c771 ccbf 3a8e e338 8ee3 c8bf
00000060: 5655 5555 5555 c5bf 721c c771 1cc7 c1bf
00000070: 20c7 711c c771 bcbf 5855 5555 5555 b5bf
00000080: 20c7 711c c771 acbf 20c7 711c c771 9cbf
00000090: 0000 0000 0000 0000 20c7 711c c771 9c3f
000000a0: 20c7 711c c771 ac3f 5055 5555 5555 b53f
000000b0: 18c7 711c c771 bc3f 701c c771 1cc7 c13f
000000c0: 5455 5555 5555 c53f 388e e338 8ee3 c83f
000000d0: 1cc7 711c c771 cc3f 0000 0000 0000 d03f
000000e0: 701c c771 1cc7 d13f e238 8ee3 388e d33f
000000f0: 5455 5555 5555 d53f c671 1cc7 711c d73f
00000100: 388e e338 8ee3 d83f aaaa aaaa aaaa da3f
00000110: 1cc7 711c c771 dc3f 8ee3 388e e338 de3f
00000120: 0000 0000 0000 e03f

acc f8 [37]
0.6916571855545044 0.692145049571991 0.6936087012290955 0.692307710647583 0.6913319230079651 0.6901935338973999 0.6859651803970337 0.6822247505187988
0.6828752756118774 0.6783216595649719 0.6786469221115112 0.6703528761863708 0.6752317547798157 0.6682387590408325 0.6631972789764404 0.6687266230583191
0.6714913249015808 0.672629714012146 0.6625467538833618 0.6731175780296326 0.6768580079078674 0.6807610988616943 0.6840136647224426 0.6853147149085999
0.6825500130653381 0.6895430088043213 0.6906813979148865 0.6856399178504944 0.6875914931297302 0.686453104019165 0.6888924837112427 0.6910066604614258
0.6910066604614258 0.6906813979148865 0.692307710647583 0.6932834386825562 0.6916571855545044
00000000: 0000 0040 0e22 e63f 0000 0060 0d26 e63f
00000010: 0000 00e0 0a32 e63f 0000 0080 6227 e63f
00000020: 0000 0020 641f e63f 0000 00c0 1016 e63f
00000030: 0000 0040 6df3 e53f 0000 0000 c9d4 e53f
00000040: 0000 0040 1dda e53f 0000 00a0 cfb4 e53f
00000050: 0000 00c0 79b7 e53f 0000 00e0 8773 e53f
00000060: 0000 00a0 7f9b e53f 0000 0040 3662 e53f
00000070: 0000 0080 e938 e53f 0000 0060 3566 e53f
00000080: 0000 0060 db7c e53f 0000 00c0 2e86 e53f
00000090: 0000 0040 9533 e53f 0000 00e0 2d8a e53f
000000a0: 0000 0020 d2a8 e53f 0000 0080 cbc8 e53f
000000b0: 0000 00a0 70e3 e53f 0000 0020 19ee e53f
000000c0: 0000 0020 73d7 e53f 0000 0080 bc10 e63f
000000d0: 0000 00e0 0f1a e63f 0000 0020 c3f0 e53f
000000e0: 0000 00e0 bf00 e63f 0000 0080 6cf7 e53f
000000f0: 0000 0040 680b e63f 0000 0000 ba1c e63f
00000100: 0000 0000 ba1c e63f 0000 00e0 0f1a e63f
00000110: 0000 0080 6227 e63f 0000 00c0 602f e63f
00000120: 0000 0040 0e22 e63f
