CEConv/outputs/test_results/flowers102-resnet18_3-true-jitter_0_0-split_1_0-seed_0-hsv_space-2024-05-09_15:52:57_kernelhueshift_norm.npz (npz, 1090 bytes, 2 tensors)

hue f8 [37]
-0.5 -0.4722222222222222 -0.4444444444444444 -0.4166666666666667 -0.3888888888888889 -0.3611111111111111 -0.33333333333333337 -0.3055555555555556
-0.2777777777777778 -0.25 -0.2222222222222222 -0.19444444444444448 -0.16666666666666669 -0.1388888888888889 -0.11111111111111116 -0.08333333333333337
-0.05555555555555558 -0.02777777777777779 0.0 0.02777777777777779 0.05555555555555558 0.08333333333333326 0.11111111111111105 0.13888888888888884
0.16666666666666663 0.19444444444444442 0.2222222222222222 0.25 0.2777777777777777 0.30555555555555547 0.33333333333333326 0.36111111111111105
0.38888888888888884 0.41666666666666663 0.4444444444444444 0.4722222222222222 0.5
00000000: 0000 0000 0000 e0bf 8ee3 388e e338 debf
00000010: 1cc7 711c c771 dcbf abaa aaaa aaaa dabf
00000020: 398e e338 8ee3 d8bf c771 1cc7 711c d7bf
00000030: 5655 5555 5555 d5bf e438 8ee3 388e d3bf
00000040: 721c c771 1cc7 d1bf 0000 0000 0000 d0bf
00000050: 1cc7 711c c771 ccbf 3a8e e338 8ee3 c8bf
00000060: 5655 5555 5555 c5bf 721c c771 1cc7 c1bf
00000070: 20c7 711c c771 bcbf 5855 5555 5555 b5bf
00000080: 20c7 711c c771 acbf 20c7 711c c771 9cbf
00000090: 0000 0000 0000 0000 20c7 711c c771 9c3f
000000a0: 20c7 711c c771 ac3f 5055 5555 5555 b53f
000000b0: 18c7 711c c771 bc3f 701c c771 1cc7 c13f
000000c0: 5455 5555 5555 c53f 388e e338 8ee3 c83f
000000d0: 1cc7 711c c771 cc3f 0000 0000 0000 d03f
000000e0: 701c c771 1cc7 d13f e238 8ee3 388e d33f
000000f0: 5455 5555 5555 d53f c671 1cc7 711c d73f
00000100: 388e e338 8ee3 d83f aaaa aaaa aaaa da3f
00000110: 1cc7 711c c771 dc3f 8ee3 388e e338 de3f
00000120: 0000 0000 0000 e03f

acc f8 [37]
0.024394210427999496 0.025369979441165924 0.026020491495728493 0.024719467386603355 0.020816393196582794 0.01886485517024994 0.01853960007429123 0.020165881142020226
0.02065376564860344 0.022280044853687286 0.023581070825457573 0.02732151560485363 0.04439746215939522 0.06911692768335342 0.10961131751537323 0.1932021528482437
0.3338754177093506 0.500569224357605 0.5893641114234924 0.5072369575500488 0.37193039059638977 0.22930558025836945 0.1466905176639557 0.0982273519039154
0.06944218277931213 0.05740770697593689 0.04943893477320671 0.0473247691988945 0.04342169314622879 0.038705479353666306 0.033826638013124466 0.029923565685749054
0.022605301812291145 0.01821434311568737 0.01788908801972866 0.021792162209749222 0.024394210427999496
00000000: 0000 00c0 cbfa 983f 0000 0080 96fa 993f
00000010: 0000 00a0 1da5 9a3f 0000 0060 0f50 993f
00000020: 0000 0080 e450 953f 0000 0000 4f51 933f
00000030: 0000 0080 0bfc 923f 0000 0060 5da6 943f
00000040: 0000 00c0 4226 953f 0000 0080 94d0 963f
00000050: 0000 00e0 a225 983f 0000 00e0 2bfa 9b3f
00000060: 0000 00a0 43bb a63f 0000 00a0 a5b1 b13f
00000070: 0000 00c0 7c0f bc3f 0000 0020 d9ba c83f
00000080: 0000 0000 375e d53f 0000 00c0 a904 e03f
00000090: 0000 0020 12dc e23f 0000 0000 493b e03f
000000a0: 0000 0020 b5cd d73f 0000 00a0 e259 cd3f
000000b0: 0000 0040 c1c6 c23f 0000 0080 6d25 b93f
000000c0: 0000 0080 f6c6 b13f 0000 0000 8b64 ad3f
000000d0: 0000 0060 0f50 a93f 0000 00c0 f33a a83f
000000e0: 0000 0040 5e3b a63f 0000 0060 34d1 a33f
000000f0: 0000 00a0 b951 a13f 0000 0080 48a4 9e3f
00000100: 0000 0020 d825 973f 0000 00e0 c7a6 923f
00000110: 0000 0060 8451 923f 0000 0040 af50 963f
00000120: 0000 00c0 cbfa 983f
